RVhackathon/data.pth (torch, 10983 bytes, 20 tensors)

l1.weight f4 [8, 69]
0	0xbe4a1286	-0.19733629
1	0xbe0fc4d8	-0.14039934
2	0x3b2a3b17	0.0025975162
3	0x3eec3f58	0.46142077
4	0xbd33ff22	-0.043944485
5	0xbd1585d7	-0.036504593
6	0x3f1ab605	0.6043399
7	0xbdf6d857	-0.12052982
8	0xbd78fe76	-0.060789548
9	0x3c49a083	0.012306335
10	0x3dbcdd56	0.09221904
11	0xbdadb9e1	-0.08482719
12	0xbdb6378c	-0.088973135
13	0xbd0c8be2	-0.03431309
14	0x3da02e9c	0.0782139
15	0x3db9ebb7	0.09078162
16	0x3f0416e2	0.51597416
17	0xbdb38740	-0.08766031
18	0xbe56e0af	-0.20984147
19	0xbd838bfa	-0.06423183
20	0xbe60f861	-0.21969749
21	0x3da7714e	0.08175908
22	0xbe077fcf	-0.13232349
23	0xbdc5f4c6	-0.096658275
24	0xbd308eaf	-0.043104824
25	0x3da3e239	0.08002133
26	0xbdaf8340	-0.08569956
27	0xbc895174	-0.016762473
28	0xbdc0b761	-0.09409977
29	0x3ebbd663	0.36687002
30	0x3e336ff0	0.1752317
31	0xbe9879f0	-0.2978053
32	0xbe4220ba	-0.18957797
33	0xbe164c73	-0.146776
34	0xbdaa215c	-0.08307144
35	0xbe44a43e	-0.19203278
36	0xbd5c3eb7	-0.053770747
37	0xbcdf4fb8	-0.027259693
38	0xbe85182e	-0.2599501
39	0x3e3303dc	0.17481941
40	0xbe0fbe90	-0.14037538
41	0xbd682416	-0.05667504
42	0xbdc6249e	-0.09674953
43	0x3a68e8e6	0.0008884802
44	0x3d8061e5	0.06268672
45	0x3d39ea41	0.045389418
46	0xbda1f69a	-0.07908364
47	0x3d9e1890	0.07719529
48	0xbe672e74	-0.22576314
49	0x3d37e065	0.044891734
50	0x3d03a9ed	0.032144476
51	0xbd8c9d35	-0.06865922
52	0xbda35fd5	-0.07977263
53	0xbea53cb0	-0.32272863
54	0x3bfff4c0	0.007811159
55	0xbe70bb5c	-0.23508972
56	0xbde04f96	-0.1095268
57	0x3e306b33	0.17228393
58	0xbf174cdd	-0.5910166
59	0x3e550e63	0.2080627
60	0x3d8372b9	0.06418366
61	0x3dd6c8e6	0.10487537
62	0xbd8c50fd	-0.06851385
63	0x3e1694bc	0.14705175
64	0xbe79e4f4	-0.24403745
65	0xbe3f2ee5	-0.18670233
66	0xba42b480	-0.00074274093
67	0xbec86978	-0.39142966
68	0x3e81b999	0.25336912
69	0xbdd84469	-0.10559923
70	0xbe6dcd3a	-0.23222819
71	0xbd8ca651	-0.0686766
72	0x3e54e691	0.20791079
73	0x3e938b52	0.2881723
74	0xbed50bbd	-0.41610518
75	0x3e8da9c8	0.27668595
76	0x3f41522f	0.7551603
77	0xbe11d4e7	-0.14241372
78	0x3d7e4a70	0.062082708
79	0xbdd9ebe2	-0.10640694
80	0xbe2b22cc	-0.16712493
81	0x3e9dba38	0.30806136
82	0xbe6bcb0c	-0.23026675
83	0xbec5772a	-0.38567477
84	0xbeb8dd29	-0.36106232
85	0x3ed838fd	0.4223098
86	0xbecf97d7	-0.40545532
87	0xbd8d126a	-0.06888278
88	0x406ea292	3.7286725
89	0x3dad1878	0.08451933
90	0xbcf67ce4	-0.03008885
91	0xbe8d378b	-0.27581438
92	0x3e24b999	0.16086425
93	0xbe10e11c	-0.14148372
94	0xbdb559de	-0.088550314
95	0x3ed8f76c	0.42376268
96	0x3d09f490	0.0336805
97	0x3e946076	0.28979844
98	0x3ea7c155	0.32764688
99	0xbd2065ff	-0.03915977
100	0x3f345e07	0.70455974
101	0x3e45027f	0.19239233
102	0xbe3595e7	-0.17732964
103	0xbde1f621	-0.110332735
104	0xbe422637	-0.1895989
105	0xbe2143e6	-0.15748557
106	0x3d0e6fba	0.03477452
107	0x3ff375ab	1.9020284
108	0x3d26b748	0.040702134
109	0xbc881978	-0.016613707
110	0xbea9e743	-0.3318425
111	0x3d2ac16a	0.04168836
112	0xbd9928f9	-0.07478518
113	0x3d03377c	0.032035336
114	0x3e0fb538	0.14033973
115	0x4065eb85	3.5925
116	0x3c8d8439	0.017274963
117	0xbe1b9108	-0.15192044
118	0xbda16922	-0.078813806
119	0xbe190d1b	-0.14946406
120	0x3cfb1f05	0.03065444
121	0xbe1a618b	-0.15076272
122	0xbeab3292	-0.3343702
123	0xbda7df38	-0.081968725
124	0x4020193f	2.501541
125	0xbde510ca	-0.11184843
126	0xbec0aea5	-0.37633243
127	0xbfb6cccb	-1.4281248
128	0x3d48ef39	0.049056266
129	0xbef3568e	-0.47526973
130	0x3da8f601	0.082500465
131	0x3d1f8078	0.038940877
132	0xbed9a07b	-0.4250525
133	0xbd47db85	-0.048793335
134	0xbe8fb5e4	-0.2806846
135	0xbec0b315	-0.3763663
136	0xbdb9a177	-0.09064
137	0xbbe67904	-0.007033469
138	0xbe8d3daa	-0.27586108
139	0x3ece06d0	0.40239573
140	0x3d01788a	0.031609096
141	0xbf12d508	-0.5735631
142	0xbc0bc9f1	-0.008532033
143	0x3ebd0f79	0.36925867
144	0xbed3b034	-0.4134537
145	0x3fa92474	1.321425
146	0xbdf7c63f	-0.12098359
147	0xbe5b4d51	-0.21416213
148	0xbdbb31e3	-0.091403745
149	0xbe89c36c	-0.26906908
150	0xbe18fceb	-0.1494023
151	0xbd8249b3	-0.06361713
152	0x3eabca7e	0.33552927
153	0x3ecc8820	0.39947605
154	0x3ee8a07e	0.45434946
155	0x3de7ed34	0.1132454
156	0x3e4956bd	0.19661994
157	0x40503314	3.2531176
158	0xbc02dc38	-0.007987075
159	0x3ea0a0f7	0.31372806
160	0xbcfb58a7	-0.030681921
161	0xbde27cb4	-0.110589415
162	0xbce1d13d	-0.027565593
163	0xbe18ed37	-0.1493424
164	0xbe8bf53f	-0.27335545
165	0x3d0100ad	0.031494785
166	0xbe847fcb	-0.25878748
167	0xbe042318	-0.12904012
168	0x3ec81808	0.39080834
169	0x3edefdb0	0.43552923
170	0x3d932d43	0.07186367
171	0x3e402dc2	0.18767455
172	0x3e9b7f02	0.30370337
173	0xbda837a4	-0.082137376
174	0xbccc98ce	-0.024975207
175	0xbe066a36	-0.13126454
176	0x3fbbbd76	1.4667194
177	0xbc3b6566	-0.0114377495
178	0x3e9be952	0.30451447
179	0xbe2fefd4	-0.17181331
180	0xbdae143c	-0.08499953
181	0xbf446f90	-0.7673273
182	0xbd3fa0c8	-0.046784192
183	0xbe074447	-0.1320964
184	0x4050256e	3.2522845
185	0xbe58a2cb	-0.2115585
186	0xbe366d21	-0.17815067
187	0xbe24d2d5	-0.16096051
188	0x3eace59f	0.33768937
189	0x3d42ad23	0.047528397
190	0x3e7b46b3	0.24538688
191	0x3e8e62eb	0.27809843
192	0xbd969436	-0.07352488
193	0x3dd91461	0.1059959
194	0xbe230396	-0.15919337
195	0xbe131058	-0.14361703
196	0x3ea5c06d	0.32373372
197	0xbe622a6a	-0.22086492
198	0x3d9c65dc	0.07636616
199	0xbe4e5d2a	-0.20152727
200	0xbe4fce09	-0.2029344
201	0xbdd17217	-0.10226839
202	0x3d38c845	0.045112867
203	0xbdddecf8	-0.10836214
204	0xbc6fa855	-0.014627536
205	0x3ef42d9d	0.4769105
206	0xbcb533b9	-0.02211939
207	0xbe719336	-0.23591313
208	0x3e708f30	0.23492122
209	0xbda7d7e1	-0.081954725
210	0xbe9d784d	-0.30755845
211	0xbdaed158	-0.08536023
212	0x3f07d732	0.53062737
213	0xbe92ac39	-0.2864702
214	0x3fb8084d	1.4377533
215	0xbe3500c3	-0.17676072
216	0xbe252aa7	-0.16129552
217	0xbe2b25ce	-0.1671364
218	0xbe9c3460	-0.3050871
219	0xbda30c02	-0.07961275
220	0xbe6a952b	-0.22908466
221	0x3e9328d6	0.28742093
222	0x3e839380	0.2569847
223	0x3ede4dcb	0.43418726
224	0x3dfece5f	0.12441706
225	0x3eb1714f	0.3465676
226	0x404fa569	3.2444708
227	0xbe0e1dc7	-0.13878547
228	0x3ebf7818	0.37396312
229	0x3cc06848	0.023487225
230	0xbe337677	-0.1752566
231	0xbe39593b	-0.18100445
232	0xbdc9dc0a	-0.09856422
233	0xbe896d7c	-0.26841342
234	0xbd64445c	-0.055729255
235	0xbe43988b	-0.1910116
236	0xbe148774	-0.14504796
237	0x3e9e3d4d	0.30906144
238	0x3ea9f025	0.33191028
239	0xbaed2f5a	-0.0018095777
240	0x3d96684b	0.07344111
241	0x3ebc1254	0.36732733
242	0xbe73ec4d	-0.2382061
243	0xbe28effc	-0.16497797
244	0xbee776ae	-0.45207733
245	0x3faca941	1.3489152
246	0xbe82394f	-0.25434348
247	0x3e61d588	0.22054112
248	0xbd7beabd	-0.06150316
249	0xbe26db0a	-0.16294494
250	0xbf1b2262	-0.6059934
251	0xbe0d4c2e	-0.13798591
252	0xbe3de096	-0.18542704
253	0x405150a2	3.2705464
254	0xbe990634	-0.29887545
255	0xbd1caf7a	-0.038253285

l1.bias f4 [8]
0	0xb9d1426d	-0.00039913077
1	0xbe4c73b5	-0.19966014
2	0x3e7899d0	0.24277425
3	0x3e0486a9	0.12941994
4	0x3e312f49	0.17303194
5	0x3ebd9ff2	0.3703609
6	0x3e1cfeb6	0.1533154
7	0x3e7400e7	0.23828469

l2.weight f4 [8, 8]
0	0xbe9863fb	-0.2976378
1	0x400eb06b	2.2295177
2	0x3f38596e	0.7201146
3	0x3eab21ef	0.33424327
4	0x3dc33599	0.09531707
5	0x3f059e8c	0.5219505
6	0xbf03f4f2	-0.5154563
7	0xbeb045ad	-0.34428158
8	0xbed7b6ff	-0.42131802
9	0x3f6cdf08	0.9252782
10	0x3f641a89	0.8910299
11	0x3f45c5c7	0.7725491
12	0xbe34b945	-0.176488
13	0x3f2e91fd	0.6819151
14	0x3db0069a	0.08595009
15	0xbee26aa2	-0.4422198
16	0xbee8ba31	-0.45454553
17	0x3ecfea8e	0.4060864
18	0x3e8e8fac	0.27843988
19	0xbeaf5f87	-0.3425257
20	0x3ee856b0	0.45378637
21	0xbec79c50	-0.38986444
22	0x3e9825b7	0.29716274
23	0x3d54bb30	0.05193633
24	0x3f06689e	0.52503383
25	0x3f01ec81	0.507515
26	0xbf264f5b	-0.64964837
27	0xbdd8630e	-0.10565768
28	0x3ec62155	0.38697305
29	0xbee34ed4	-0.4439608
30	0x3f014af1	0.50504977
31	0x3f298c0c	0.6622932
32	0x3e3a20a1	0.1817651
33	0x3f04cdc7	0.5187649
34	0xbd8dc460	-0.06922221
35	0x3bccc045	0.0062485063
36	0x3f08c499	0.53424984
37	0xbd9b10d1	-0.07571567
38	0x3f263abb	0.64933366
39	0x3efd31f9	0.4945219
40	0xbe865feb	-0.26245055
41	0x3f17ade1	0.59249693
42	0x3f64ad8d	0.8932732
43	0x3f37bc50	0.7177172
44	0xbe157ea5	-0.14599092
45	0x3f3ca16d	0.73683816
46	0xbeadfd21	-0.33982185
47	0xbed32c09	-0.41244534
48	0x3e90a517	0.28250954
49	0x3f9b833b	1.2149423
50	0x3f681bc1	0.9066735
51	0x3f464710	0.7745218
52	0x3f244fcf	0.6418428
53	0x3e5c0cc4	0.21489245
54	0x3d9cebe2	0.076621786
55	0x3e81c8ee	0.2534861
56	0xbba1f6a5	-0.0049427324
57	0x3ea48076	0.32129258
58	0x3eb904e2	0.36136538
59	0x3eed1902	0.46308142
60	0xbd0684e5	-0.03284158
61	0x3eb49241	0.35267833
62	0xbea28393	-0.31741008
63	0xbe4ebcea	-0.20189252

l2.bias f4 [8]
0	0xbec350cf	-0.3814759
1	0xbbaf51b1	-0.0053503145
2	0xbe154c07	-0.14579783
3	0x3e4e3d9f	0.20140694
4	0xbddf0aa6	-0.10890703
5	0x3ec9df26	0.3942806
6	0x3e8e6907	0.27814505
7	0x3e4dc6ab	0.20095317

l3.weight f4 [8, 8]
0	0x3f4a4f4b	0.7902724
1	0x3d6c5aa4	0.05770363
2	0x3f02ae54	0.51047254
3	0xbe58a9fc	-0.21158594
4	0xbf214a5e	-0.630041
5	0x3e3d82ac	0.18506879
6	0x3f261cd2	0.64887726
7	0x3d050dad	0.032483745
8	0x3f927346	1.1441429
9	0x3f5c747a	0.8611523
10	0x3dcf60fc	0.1012592
11	0xbf34ad6d	-0.70577127
12	0xbef43ec7	-0.47704145
13	0x3f863af0	1.0486736
14	0x3e9aafc5	0.30212227
15	0x3ef6db72	0.48214298
16	0xbea26915	-0.31720796
17	0xbe6ce0f3	-0.23132686
18	0x3e84e7aa	0.25957996
19	0x3ef13ad7	0.47115204
20	0xbdcfb4bc	-0.10141894
21	0xbf72efd0	-0.94897175
22	0x3ecbc2b5	0.39796987
23	0xbef0af9d	-0.47008982
24	0x3f5c0658	0.8594718
25	0x3f3cdc22	0.73773396
26	0xbe9d744e	-0.30752796
27	0xbf1ea8b0	-0.61976147
28	0xbf02a0bf	-0.5102653
29	0x3f61f166	0.8825897
30	0x3f0a44cb	0.5401122
31	0x3e997377	0.29970905
32	0xbed343c0	-0.41262627
33	0xbf1c8bd8	-0.61150885
34	0x3d79969e	0.060934655
35	0x3ebbbe4e	0.36668628
36	0xbe192ee6	-0.14959297
37	0xbf1ccb39	-0.61247593
38	0x3f132f0d	0.5749367
39	0xbf4ae9d6	-0.79263055
40	0xbed49fb6	-0.415281
41	0xbc3851c5	-0.011249964
42	0x3e5f213a	0.21790019
43	0x3f077390	0.5291071
44	0x3e830ca4	0.25595582
45	0xbd89da4b	-0.06731089
46	0x3e0abab5	0.13547786
47	0xbed32664	-0.41240227
48	0x3fee880e	1.863527
49	0x3f32ea9d	0.6988924
50	0x3f24fd33	0.6444885
51	0x3e85aae9	0.26106957
52	0x3efc1c11	0.49240163
53	0xbc29fe0b	-0.01037551
54	0x3e950141	0.2910252
55	0x3f36c346	0.71391714
56	0x3f0cdc25	0.55023414
57	0x3f158082	0.5839921
58	0x3e061ba1	0.13096477
59	0xbeb567c5	-0.35430732
60	0x3f13fd44	0.5780833
61	0x3e4f5b21	0.20249607
62	0x3e80d389	0.2516139
63	0x3e5b4d06	0.21416101

l3.bias f4 [8]
0	0x3f0fd96e	0.56191146
1	0x3dcbe194	0.09955135
2	0x3f2707fe	0.6524657
3	0x3d5d06eb	0.053961676
4	0x3f2eafbe	0.6823691
5	0xbe64e99d	-0.22354741
6	0xbfeaa1d9	-1.8330642
7	0xbf50d9d5	-0.81582385

l4.weight f4 [8, 8]
0	0x3f01c863	0.5069639
1	0xbe676c6a	-0.2259995
2	0x3d1a14d0	0.037617505
3	0x3edbd688	0.42937112
4	0x3ca6d537	0.02036534
5	0xbe250b93	-0.16117696
6	0xbd391622	-0.045187123
7	0xbee68699	-0.45024565
8	0x3d91a536	0.071115896
9	0x3ddccd77	0.10781377
10	0x3e6be739	0.23037423
11	0xbe753cee	-0.23949024
12	0x3f1a3c2c	0.60248065
13	0x3f1f2780	0.6216965
14	0xbe8887f3	-0.2666622
15	0x3c39ff60	0.01135239
16	0x3eea9d10	0.45822954
17	0xbece2f5f	-0.40270516
18	0x3f3f028c	0.7461326
19	0xbe8383fb	-0.2568663
20	0x3f533f9c	0.82518935
21	0xbd9d99e8	-0.07695371
22	0xbebe27b9	-0.3713968
23	0xbe4ab4d2	-0.1979554
24	0xbe39df8a	-0.1815168
25	0xbe17f668	-0.1484009
26	0xbd85f40a	-0.065406874
27	0x3e5a6ea7	0.21331273
28	0x3e9e6242	0.3093434
29	0xbe726ee8	-0.2367512
30	0xbe905843	-0.28192338
31	0xbe6c59ab	-0.2308108
32	0x3f221f70	0.6332922
33	0x3f8a327e	1.0796659
34	0xbf1a34b2	-0.60236657
35	0x3f75613a	0.9585148
36	0xbf235db8	-0.6381488
37	0xbec821a2	-0.3908816
38	0x402c0326	2.6876922
39	0x3f437e16	0.76364267
40	0xbef11a5b	-0.4709042
41	0xbd95f6c9	-0.07322461
42	0x3e619ee7	0.22033273
43	0x3e85a9ef	0.26106212
44	0xbe44baaa	-0.19211832
45	0x3cb669bf	0.02226722
46	0xbe274983	-0.16336636
47	0xbe5214bd	-0.20515724
48	0xbcd65517	-0.02616362
49	0x3f18378a	0.59459746
50	0xbdb9b13c	-0.09067008
51	0x3ee1bcc4	0.4408933
52	0xbea3decd	-0.3200592
53	0xbea98f40	-0.33117104
54	0x402cf837	2.7026498
55	0x3f0306ca	0.51182234
56	0x3e633f7b	0.22192185
57	0xbed170df	-0.40906426
58	0x3e92d6e4	0.28679574
59	0xbe996227	-0.29957697
60	0x3ec5d5a5	0.3863956
61	0x3e82a917	0.2551963
62	0xbe37d84c	-0.17953604
63	0xbef4ab94	-0.47787154

l4.bias f4 [8]
0	0x3ee6b8cd	0.45062867
1	0x3b92a742	0.004475505
2	0x3f18bb55	0.59660846
3	0xbea830f4	-0.32849848
4	0x3e927ca8	0.2861073
5	0xbecd5772	-0.40105778
6	0x3e480d33	0.19536285
7	0x3f443c15	0.7665418

l5.weight f4 [8, 8]
0	0xbef9c122	-0.4878016
1	0xbf5d04ff	-0.8633575
2	0xbf1da723	-0.61583155
3	0x3e2741c6	0.16333684
4	0x3f233a0d	0.63760453
5	0x3d0a32e3	0.033739936
6	0x3eb75b3b	0.3581179
7	0xbf25db54	-0.64787793
8	0xbe67a66a	-0.22622076
9	0xbea802dc	-0.32814682
10	0x3e6d6c1f	0.23185776
11	0x3ce56d2e	0.028006162
12	0xbe48a6c1	-0.19594862
13	0xbd21e389	-0.039523635
14	0xbf38ee03	-0.7223818
15	0x3e8484d5	0.25882593
16	0x3cbbe000	0.02293396
17	0x3b562580	0.003267616
18	0xbe2dcef3	-0.16973476
19	0xbe3a82c4	-0.18213946
20	0x3d513900	0.05107975
21	0xbde6b392	-0.11264719
22	0xbe8df74a	-0.2772773
23	0xbe6ec7bc	-0.2331838
24	0xbef7bb26	-0.4838497
25	0x3d8cf347	0.06882339
26	0xbec97f51	-0.39354947
27	0xbe97429a	-0.29543
28	0x3f22b630	0.63559246
29	0xbe8eda8d	-0.27901116
30	0x3f41fe82	0.75778973
31	0xbf067f3f	-0.5253791
32	0x3d4e02d0	0.05029565
33	0x3d6d037a	0.057864644
34	0x3f15a233	0.5845062
35	0xbe9300f8	-0.28711677
36	0xbee3d035	-0.44494787
37	0x3d9f2c5e	0.07772134
38	0xbf00d22d	-0.503207
39	0x3f08f5be	0.5349997
40	0xbf2cf772	-0.6756507
41	0x3f089421	0.53351027
42	0x3f1e455b	0.6182458
43	0x3eb54d53	0.35410556
44	0xbf339154	-0.7014363
45	0xbd51c9a4	-0.05121769
46	0xbf30d529	-0.69075257
47	0x3f2def62	0.67943394
48	0x3dad745d	0.0846946
49	0xbdbd0d26	-0.092310235
50	0xbd773af2	-0.06035895
51	0x3e6c37ee	0.2306821
52	0x3f28200c	0.656739
53	0xbd101359	-0.0351747
54	0x3ec95714	0.39324248
55	0xbd455547	-0.04817703
56	0xbe19b306	-0.15009698
57	0x3f0cfd10	0.5507364
58	0x3edff3e7	0.4374077
59	0x3e077822	0.13229421
60	0xbf1720af	-0.59034246
61	0xbe891284	-0.2677194
62	0xbf143bdb	-0.5790383
63	0x3e85cfe9	0.26135185

l5.bias f4 [8]
0	0xbf07fbfc	-0.5311887
1	0x3ecbf565	0.3983566
2	0xbdda2de0	-0.10653281
3	0xbed35bc5	-0.41280952
4	0x3f46c5bc	0.7764547
5	0xbe07e4df	-0.13270901
6	0x3f5ad9f5	0.85488826
7	0xbe67446c	-0.22584695

l6.weight f4 [8, 8]
0	0xbdf1e688	-0.118115485
1	0xbea19da0	-0.3156557
2	0xbea3691f	-0.3191614
3	0xbea31d9e	-0.31858534
4	0xbe70e06e	-0.23523113
5	0xbe97be90	-0.29637575
6	0xbe90b0a4	-0.28259766
7	0xbdb00ffc	-0.08596799
8	0xbf142aa4	-0.57877564
9	0x3a743420	0.00093156286
10	0xbd0144e0	-0.031559825
11	0xbcec2103	-0.028824335
12	0x3cd190cf	0.025581745
13	0x3ed76aad	0.42073575
14	0xbfbe7b31	-1.4881345
15	0x3ea8b6ea	0.32952052
16	0x3dd784c5	0.10523371
17	0xbe2305c4	-0.15920168
18	0xbe799981	-0.24374963
19	0xbe96a409	-0.29422024
20	0x3e61cab3	0.2204998
21	0xbe982503	-0.29715738
22	0xbeb35c86	-0.35031527
23	0x3df89e04	0.12139514
24	0xbe8b6b89	-0.2723048
25	0x3ba6d440	0.00509122
26	0xbd898640	-0.06715059
27	0xbd99aa30	-0.07503164
28	0x3d431ce8	0.04763499
29	0xbe2ba4b3	-0.16762047
30	0xbdaa9b18	-0.08330363
31	0xbe89f65a	-0.26945764
32	0x3eb13c92	0.34616524
33	0xbf6c47c4	-0.92297006
34	0x3d5687f8	0.052375764
35	0x3ed25f48	0.4108832
36	0x3edf71ee	0.4364161
37	0xbec212ac	-0.3790487
38	0x3e835c69	0.2565644
39	0xbd37ed23	-0.044903886
40	0xbd893365	-0.06699256
41	0x3d61bf97	0.055114355
42	0xbe9984f2	-0.29984242
43	0xbef2bdc5	-0.47410408
44	0x3f18e156	0.59718835
45	0x3f04882c	0.5177028
46	0xbd8cc21b	-0.0687296
47	0x3f052c0b	0.5202033
48	0xbb0433d1	-0.0020172487
49	0x3e729d7c	0.23692888
50	0x3e86aafb	0.26302323
51	0xbe4a6693	-0.19765691
52	0x3f3bf0b6	0.7341417
53	0x3eba73a3	0.3641635
54	0xbd87e499	-0.066353984
55	0xbdd4e0d8	-0.10394448
56	0x3f419574	0.7561867
57	0x3e454384	0.19264036
58	0xbd089fd0	-0.033355534
59	0x3f473bf2	0.77825844
60	0xbf31529d	-0.6926668
61	0x3e97ed8b	0.29673418
62	0x3e2929fb	0.1651992
63	0xbeb18cdf	-0.3467779

l6.bias f4 [8]
0	0xbd52c260	-0.0514549
1	0xbf61971b	-0.88121194
2	0xbe6788dc	-0.22610801
3	0xbdfc095a	-0.12306471
4	0xbe29dbe7	-0.16587792
5	0xbe766295	-0.24061044
6	0x3f6937ce	0.91100776
7	0xbf86d712	-1.0534384

l7.weight f4 [8, 8]
0	0x3eaf4945	0.34235588
1	0x3e5541e2	0.20825914
2	0xbe7ec564	-0.24879986
3	0x3e966e89	0.29381207
4	0x3eb2c3aa	0.34914905
5	0x3e8f6705	0.28008285
6	0xbdb7ce4b	-0.08974894
7	0xbe92194e	-0.2853493
8	0xbe81358b	-0.25236163
9	0x3e157bf1	0.14598061
10	0xbe26e967	-0.16299973
11	0xbe06c5c0	-0.13161373
12	0xbc3b4caa	-0.011431852
13	0x3edba5f7	0.4290006
14	0x3e8b7141	0.27234843
15	0xbdda5f1f	-0.10662674
16	0x3da9b514	0.08286491
17	0xbe99ff9c	-0.30077827
18	0xbe6f2c88	-0.23356831
19	0xbcd0cee0	-0.02548927
20	0xbd9145a5	-0.07093362
21	0xbe581b4c	-0.21104163
22	0x3e8a698f	0.2703366
23	0x3eb604a2	0.3555041
24	0xbd939b4c	-0.07207355
25	0xbeac31c7	-0.33631727
26	0xbe98b671	-0.29826692
27	0xbe260888	-0.16214192
28	0x3f16bfca	0.58886397
29	0x3ec1f915	0.37885347
30	0x3f0437c1	0.51647574
31	0x3f425bea	0.759215
32	0xbd8cb968	-0.06871301
33	0xbebdbb18	-0.37056804
34	0xbda571c0	-0.08078337
35	0xbdffef7a	-0.124968484
36	0x3ecdb0a2	0.40173823
37	0x3e833e1e	0.2563333
38	0xbe3c634a	-0.18397251
39	0x3e48a193	0.19592886
40	0xbe954769	-0.29156044
41	0xbe7869ce	-0.24259111
42	0x3dd0b75c	0.10191223
43	0xbdff080e	-0.12452708
44	0xbea6568d	-0.32487908
45	0x3dc47eed	0.09594522
46	0xbd9ba98c	-0.07600698
47	0xbdd991ac	-0.10623488
48	0x3d133a78	0.035944432
49	0x3f084035	0.5322297
50	0x3e9a7fa6	0.30175513
51	0xbc97dbe0	-0.018537462
52	0xbd9e5e06	-0.07732777
53	0x3f53066b	0.8243167
54	0x3f47b99c	0.7801759
55	0xbd2dfe93	-0.04247911
56	0xbe9db252	-0.3080011
57	0xbf270fb4	-0.65258336
58	0xbde232f1	-0.110448726
59	0x3da4e078	0.080506265
60	0x3d13a119	0.036042307
61	0x3c5f4df8	0.013629429
62	0x3dea3bc6	0.11437182
63	0xbed81330	-0.4220214

l7.bias f4 [8]
0	0xbf0d3ac5	-0.551678
1	0xbece644a	-0.4031089
2	0xc04853f0	-3.1301231
3	0x403c46e6	2.9418273
4	0xc0551335	-3.3292973
5	0xbe92c144	-0.28663075
6	0xbcf11479	-0.029428707
7	0x3f88d9f2	1.0691512

l8.weight f4 [8, 8]
0	0xbdf9e737	-0.12202304
1	0xbe542d8e	-0.20720503
2	0xbeee4910	-0.46540117
3	0x3e9ba13c	0.3039645
4	0xbeb784ea	-0.35843593
5	0x3e1a96c6	0.15096578
6	0xc04f7d56	-3.242025
7	0xc04b5ce5	-3.1775448
8	0x3e8ddae7	0.27706072
9	0x3d9f404e	0.07775937
10	0x3e8cb591	0.27482274
11	0xbe7d845d	-0.24757524
12	0xbe28918e	-0.16461775
13	0xbb1ad680	-0.0023626387
14	0x3ce94389	0.028474586
15	0xbdbe02e8	-0.09277898
16	0x3e4ced50	0.20012403
17	0x3ea651fb	0.3248442
18	0x3d077c64	0.033077613
19	0x3e502147	0.20325194
20	0x3e700a4f	0.23441432
21	0xbd349447	-0.04408672
22	0x3e93dedc	0.28880966
23	0x3eb16d64	0.3465377
24	0xbeb4fd97	-0.35349724
25	0xbea1749b	-0.31534275
26	0x3ecc784c	0.3993553
27	0x3c34df51	0.011039571
28	0x3f07d230	0.53055096
29	0xbeb1ce72	-0.34727818
30	0xbe835f02	-0.25658423
31	0xbdb256cc	-0.087079614
32	0x3df67ba4	0.12035301
33	0x3e842c5b	0.2581509
34	0xbe04c06f	-0.12964033
35	0xbd7d2457	-0.061802235
36	0xbe248654	-0.16066867
37	0xbeae17ab	-0.34002432
38	0xbec3b76d	-0.3822588
39	0x3e915b29	0.28389862
40	0x3c83e650	0.016101032
41	0x3ee7dca1	0.45285514
42	0xbe48dc43	-0.19615273
43	0xbdcf92eb	-0.10135444
44	0xbe79e464	-0.2440353
45	0xbe0ff7a2	-0.14059308
46	0x3e869fa6	0.26293677
47	0x3ef0b4b9	0.4701288
48	0xbea74680	-0.32670975
49	0x3d926976	0.07149021
50	0x3ea29fc5	0.3176252
51	0x3ec97ca1	0.39352897
52	0x3e90ae8a	0.28258163
53	0xbe314b8c	-0.17313975
54	0x3f01d976	0.50722444
55	0x3f16ca2f	0.5890226
56	0xbf013cdc	-0.5048349
57	0xbf057350	-0.5212908
58	0x3c8142cd	0.015778923
59	0x3f059fd5	0.5219701
60	0x3e602d8c	0.21892375
61	0x3cf2f9a0	0.029660046
62	0xbec1f1f7	-0.37879917
63	0x3f01689b	0.5055024

l8.bias f4 [8]
0	0x403b3db7	2.9256418
1	0xbea91a54	-0.330279
2	0xbf71fd56	-0.94527185
3	0xc041258e	-3.0179172
4	0xbdce1571	-0.100626834
5	0xbde7b6c8	-0.1131416
6	0xc0155bd0	-2.3337288
7	0x40783d4e	3.8787417

l9.weight f4 [8, 8]
0	0xbea2ab31	-0.31771234
1	0x3e4a95db	0.19783728
2	0x3f0eb6ac	0.55747485
3	0x3ed4141a	0.41421586
4	0x3e80f916	0.25190037
5	0x3e8ac6ce	0.271048
6	0x3eeb598e	0.45966762
7	0x3e7f2cbd	0.2491941
8	0xbcc4782f	-0.02398309
9	0x3e53586c	0.20639199
10	0x3dc494bb	0.095986806
11	0x3e78c64a	0.24294391
12	0x3e1d12c2	0.15339187
13	0x3e5c2885	0.21499832
14	0x3d9dd4b9	0.07706589
15	0xbf81213f	-1.0088271
16	0x4012370e	2.2846103
17	0x3e6431ac	0.22284573
18	0x3d83a4d3	0.06427922
19	0xbfe21c3b	-1.7664865
20	0xbea75271	-0.32680085
21	0x3eb95974	0.3620106
22	0xbc9b7381	-0.018975975
23	0x3eabc5d6	0.33549374
24	0xbf0d6357	-0.55229706
25	0x3d1d09b4	0.03833933
26	0x3d11ce2b	0.035597008
27	0x3f4cf47c	0.80060554
28	0xbeab0873	-0.33404884
29	0x3e7ba998	0.24576414
30	0x3efbdf8c	0.4919399
31	0x3d67da70	0.056604803
32	0xbe625258	-0.22101724
33	0x3e087501	0.13325883
34	0x3ee0f684	0.43938076
35	0x3e82a8d8	0.25519443
36	0xbdff8080	-0.12475681
37	0xbe290d6a	-0.16509023
38	0x3ecf791d	0.4052209
39	0xbf202cf3	-0.6256859
40	0xbcb19155	-0.021675745
41	0xbcb09217	-0.021554036
42	0x3ed7f45f	0.42178628
43	0x3e2390fa	0.15973273
44	0x3ca62020	0.02027899
45	0x3f0ed180	0.5578842
46	0x3dc43a87	0.09581476
47	0xc023dfad	-2.560527
48	0x3fae3be7	1.3612031
49	0x3e30f4be	0.17280862
50	0x3d2eff01	0.04272366
51	0xbf0adfad	-0.5424755
52	0xbd364453	-0.044498753
53	0xbf885e17	-1.0653714
54	0xbeb5d1cf	-0.35511634
55	0x3f8829e2	1.0637782
56	0xbf43529b	-0.7629792
57	0xbdad3b2b	-0.08458551
58	0x3ed30c07	0.41220114
59	0x3f067c02	0.5253297
60	0xbd8380c0	-0.064210415
61	0xbc0bf6d0	-0.008542731
62	0x3eec7d2d	0.46189252
63	0xbeed6884	-0.46368802

l9.bias f4 [8]
0	0xbf5b84fb	-0.8574979
1	0xbf3c608f	-0.73584837
2	0x3fae558a	1.3619854
3	0xbf44185a	-0.7659966
4	0xbf5a56c4	-0.85288644
5	0xbfc859c3	-1.5652393
6	0x4069a9fb	3.6509998
7	0xbf02d257	-0.51102203

l10.weight f4 [12, 8]
0	0xc09226c9	-4.5672345
1	0xbe873d50	-0.26413965
2	0x3fdbb7cb	1.7165464
3	0xc0a449e4	-5.13402
4	0xbf2600b1	-0.64844805
5	0xbf38eaa1	-0.72233015
6	0x3f1180b9	0.5683704
7	0xbe2d53c5	-0.16926487
8	0x3e661418	0.22468603
9	0xbf196fe6	-0.5993637
10	0xc0edbb32	-7.429101
11	0x3e56ce46	0.20977125
12	0xbf28506b	-0.6574771
13	0xbef17672	-0.4716068
14	0xbbf450e2	-0.007455931
15	0xbe49f029	-0.1972052
16	0xbdfaa33e	-0.12238167
17	0xbea8c798	-0.32964778
18	0x3f5016df	0.812849
19	0xbf59f5c7	-0.8514065
20	0xbf24e7c7	-0.64416164
21	0xbf00b9b5	-0.50283366
22	0x3ecfa6b1	0.40556863
23	0xc08081e9	-4.015858
24	0x3e266e61	0.16253044
25	0xbefe6e9c	-0.49693763
26	0xbf7d6706	-0.98985326
27	0xbe0cd252	-0.13752106
28	0xbf70a7b8	-0.9400592
29	0xbf2d2905	-0.67640716
30	0x3f004d69	0.5011812
31	0xbf85556e	-1.0416696
32	0xc010cc37	-2.2624643
33	0xbd8a59b9	-0.067553945
34	0xbf4e436f	-0.80571645
35	0xc00b4cbc	-2.1765585
36	0xbead20e1	-0.33814147
37	0x3dbc9f77	0.09210103
38	0x3ff445f5	1.9083849
39	0xbee2c501	-0.44290927
40	0x3f042b78	0.5162883
41	0xbffdb6b8	-1.9821386
42	0x3f6b235d	0.91850835
43	0x3f37d2a1	0.7180577
44	0xbf0304a1	-0.5117894
45	0xc046381c	-3.0971746
46	0xc0467bab	-3.101298
47	0x3f1c79b0	0.6112318
48	0x3ea33a4d	0.31880417
49	0x3e2ccbce	0.1687462
50	0x3cbcefde	0.023063596
51	0x3e283e4e	0.16430017
52	0x3db934f2	0.09043302
53	0x3c201ad2	0.009772019
54	0xbecbbd86	-0.39793032
55	0x3d5a47e6	0.053291224
56	0x3d2a7ca8	0.041622788
57	0xbcd679a1	-0.026181044
58	0xbbf05318	-0.0073341243
59	0x3e9a6e0b	0.3016208
60	0xbc698ac9	-0.01425428
61	0x3db4eab0	0.088338256
62	0xc0993676	-4.787898
63	0x3eba9f64	0.3644973
64	0x3eeeea6c	0.46663225
65	0xc0384353	-2.8791091
66	0x3fc40066	1.5312622
67	0x3cb9a355	0.02266089
68	0xc0a42ab7	-5.130214
69	0xc009a242	-2.1505284
70	0xbf59bcfe	-0.85054004
71	0x3f0a481d	0.54016286
72	0xbf319fcf	-0.69384474
73	0xbea60ca4	-0.3243152
74	0x3fa1df49	1.2646266
75	0xc02fb508	-2.7454243
76	0xbf8f9d37	-1.1219853
77	0xbf0e2afb	-0.55534333
78	0x3ef3c110	0.47608232
79	0xbf49cb97	-0.7882628
80	0xbdf4a759	-0.119459815
81	0xbf277386	-0.6541065
82	0xbc826b9e	-0.015920456
83	0x3e49b7c4	0.19699007
84	0xbf47fa6e	-0.781165
85	0xbf36a049	-0.71338326
86	0x3eebff06	0.46093005
87	0xc06eedf8	-3.7332745
88	0x3e07f92a	0.13278642
89	0xbf37c53a	-0.7178532
90	0xc04165bd	-3.0218346
91	0xbe938cc6	-0.2881834
92	0xbf2c73d4	-0.6736424
93	0xbf478cf1	-0.77949435
94	0x3f3bb405	0.73321563
95	0xbee8baba	-0.4545496

l10.bias f4 [12]
0	0xbe036a6e	-0.12833568
1	0x3f05f0b0	0.52320385
2	0x3d2cdc39	0.04220221
3	0x3e82be07	0.25535604
4	0x4038f4fe	2.8899531
5	0x3f1d7eda	0.61521685
6	0xbf976748	-1.1828394
7	0xbf683c53	-0.9071705
8	0x3f8c3429	1.0953418
9	0xbe2a1a58	-0.16611612
10	0xbe4bc6a3	-0.19899993
11	0x3ec30980	0.38093185
